save path : ./saves/2021-09-28_RadioML/RadioML_UltraNet__ep-100_bs-1024_vanilla
python version : 3.8.12 | packaged by conda-forge | (default, Sep 16 2021, 02:08:29)  [GCC 9.4.0]
torch  version : 1.9.1+cu102
cudnn  version : 7605
Available GPUs: 2
Create model.
UltraNet(
  (conv0): Conv1d(2, 16, kernel_size=(3,), stride=(1,), padding=(1,))
  (bn0): BatchNorm1d(16, eps=1e-05, momentum=0.1, affine=True, track_running_stats=True)
  (conv1): Conv1d(16, 32, kernel_size=(3,), stride=(1,), padding=(1,))
  (bn1): BatchNorm1d(32, eps=1e-05, momentum=0.1, affine=True, track_running_stats=True)
  (conv2): Conv1d(32, 64, kernel_size=(3,), stride=(1,), padding=(1,))
  (bn2): BatchNorm1d(64, eps=1e-05, momentum=0.1, affine=True, track_running_stats=True)
  (conv3): Conv1d(64, 64, kernel_size=(3,), stride=(1,), padding=(1,))
  (bn3): BatchNorm1d(64, eps=1e-05, momentum=0.1, affine=True, track_running_stats=True)
  (conv4): Conv1d(64, 64, kernel_size=(3,), stride=(1,), padding=(1,))
  (bn4): BatchNorm1d(64, eps=1e-05, momentum=0.1, affine=True, track_running_stats=True)
  (conv5): Conv1d(64, 64, kernel_size=(3,), stride=(1,), padding=(1,))
  (bn5): BatchNorm1d(64, eps=1e-05, momentum=0.1, affine=True, track_running_stats=True)
  (conv6): Conv1d(64, 64, kernel_size=(3,), stride=(1,), padding=(1,))
  (bn6): BatchNorm1d(64, eps=1e-05, momentum=0.1, affine=True, track_running_stats=True)
  (conv7): Conv1d(64, 32, kernel_size=(3,), stride=(1,), padding=(1,))
  (bn7): BatchNorm1d(32, eps=1e-05, momentum=0.1, affine=True, track_running_stats=True)
  (fc1): Linear(in_features=256, out_features=64, bias=True)
  (bn_dense): BatchNorm1d(64, eps=1e-05, momentum=0.1, affine=True, track_running_stats=True)
  (fc2): Linear(in_features=64, out_features=24, bias=True)
  (relu): ReLU()
  (pooling): MaxPool1d(kernel_size=2, stride=2, padding=0, dilation=1, ceil_mode=False)
) 

Number of parameters: 82408

Activate multi GPU support.
Loading data.
Start training.

==>>[2021-09-28 17:56:24] [Epoch=000/100] [Need: 00h00m][Avg: 00m00s] [LR=0.00100] [Best Acc=0.00]

    **Train** Prec@1 41.917 Prec@5 73.332 Error@1 58.083
    Accuracy of the network on the test images: 43.8 %
…
